…
Layer (type)                    Output Shape         Param #     Connected to                     
==================================================================================================
input_1 (InputLayer)            [(480, None, 362)]   0                                            
__________________________________________________________________________________________________
sequential (Sequential)         multiple             0           input_1[0][0]                    
__________________________________________________________________________________________________
lstm (LSTM)                     (480, 245)           595840      sequential[0][0]                 
__________________________________________________________________________________________________
dense (Dense)                   (480, 362)           89052       lstm[0][0]                       
__________________________________________________________________________________________________
dropout (Dropout)               (480, 362)           0           dense[0][0]                      
__________________________________________________________________________________________________
dense_1 (Dense)                 (480, 362)           131406      dropout[0][0]                    
__________________________________________________________________________________________________
dropout_1 (Dropout)             (480, 362)           0           dense_1[0][0]                    
__________________________________________________________________________________________________
dense_2 (Dense)                 (480, 512)           185856      dropout_1[0][0]                  
__________________________________________________________________________________________________
dense_4 (Dense)                 (480, 512)           185856      dropout_1[0][0]                  
__________________________________________________________________________________________________
dense_6 (Dense)                 (480, 512)           185856      dropout_1[0][0]                  
__________________________________________________________________________________________________
dense_8 (Dense)                 (480, 512)           185856      dropout_1[0][0]                  
__________________________________________________________________________________________________
dense_10 (Dense)                (480, 512)           185856      dropout_1[0][0]                  
__________________________________________________________________________________________________
dense_12 (Dense)                (480, 512)           185856      dropout_1[0][0]                  
__________________________________________________________________________________________________
leaky_re_lu (LeakyReLU)         (480, 512)           0           dense_2[0][0]                    
__________________________________________________________________________________________________
leaky_re_lu_2 (LeakyReLU)       (480, 512)           0           dense_4[0][0]                    
__________________________________________________________________________________________________
leaky_re_lu_4 (LeakyReLU)       (480, 512)           0           dense_6[0][0]                    
__________________________________________________________________________________________________
leaky_re_lu_6 (LeakyReLU)       (480, 512)           0           dense_8[0][0]                    
__________________________________________________________________________________________________
leaky_re_lu_8 (LeakyReLU)       (480, 512)           0           dense_10[0][0]                   
__________________________________________________________________________________________________
leaky_re_lu_10 (LeakyReLU)      (480, 512)           0           dense_12[0][0]                   
__________________________________________________________________________________________________
dropout_2 (Dropout)             (480, 512)           0           leaky_re_lu[0][0]                
__________________________________________________________________________________________________
dropout_4 (Dropout)             (480, 512)           0           leaky_re_lu_2[0][0]              
__________________________________________________________________________________________________
dropout_6 (Dropout)             (480, 512)           0           leaky_re_lu_4[0][0]              
__________________________________________________________________________________________________
dropout_8 (Dropout)             (480, 512)           0           leaky_re_lu_6[0][0]              
__________________________________________________________________________________________________
dropout_10 (Dropout)            (480, 512)           0           leaky_re_lu_8[0][0]              
__________________________________________________________________________________________________
dropout_12 (Dropout)            (480, 512)           0           leaky_re_lu_10[0][0]             
__________________________________________________________________________________________________
dense_3 (Dense)                 (480, 256)           131328      dropout_2[0][0]                  
__________________________________________________________________________________________________
dense_5 (Dense)                 (480, 256)           131328      dropout_4[0][0]                  
__________________________________________________________________________________________________
dense_7 (Dense)                 (480, 256)           131328      dropout_6[0][0]                  
__________________________________________________________________________________________________
dense_9 (Dense)                 (480, 256)           131328      dropout_8[0][0]                  
__________________________________________________________________________________________________
dense_11 (Dense)                (480, 256)           131328      dropout_10[0][0]                 
__________________________________________________________________________________________________
dense_13 (Dense)                (480, 256)           131328      dropout_12[0][0]                 
__________________________________________________________________________________________________
leaky_re_lu_1 (LeakyReLU)       (480, 256)           0           dense_3[0][0]                    
__________________________________________________________________________________________________
leaky_re_lu_3 (LeakyReLU)       (480, 256)           0           dense_5[0][0]                    
__________________________________________________________________________________________________
leaky_re_lu_5 (LeakyReLU)       (480, 256)           0           dense_7[0][0]                    
__________________________________________________________________________________________________
leaky_re_lu_7 (LeakyReLU)       (480, 256)           0           dense_9[0][0]                    
__________________________________________________________________________________________________
leaky_re_lu_9 (LeakyReLU)       (480, 256)           0           dense_11[0][0]                   
__________________________________________________________________________________________________
leaky_re_lu_11 (LeakyReLU)      (480, 256)           0           dense_13[0][0]                   
__________________________________________________________________________________________________
dropout_3 (Dropout)             (480, 256)           0           leaky_re_lu_1[0][0]              
__________________________________________________________________________________________________
dropout_5 (Dropout)             (480, 256)           0           leaky_re_lu_3[0][0]              
__________________________________________________________________________________________________
dropout_7 (Dropout)             (480, 256)           0           leaky_re_lu_5[0][0]              
__________________________________________________________________________________________________
dropout_9 (Dropout)             (480, 256)           0           leaky_re_lu_7[0][0]              
__________________________________________________________________________________________________
dropout_11 (Dropout)            (480, 256)           0           leaky_re_lu_9[0][0]              
__________________________________________________________________________________________________
dropout_13 (Dropout)            (480, 256)           0           leaky_re_lu_11[0][0]             
__________________________________________________________________________________________________
Anger (Dense)                   (480, 10)            2570        dropout_3[0][0]                  
__________________________________________________________________________________________________
Disgust (Dense)                 (480, 10)            2570        dropout_5[0][0]                  
__________________________________________________________________________________________________
Fear (Dense)                    (480, 10)            2570        dropout_7[0][0]                  
__________________________________________________________________________________________________
Happiness (Dense)               (480, 10)            2570        dropout_9[0][0]                  
__________________________________________________________________________________________________
Sadness (Dense)                 (480, 10)            2570        dropout_11[0][0]                 
__________________________________________________________________________________________________
Surprise (Dense)                (480, 10)            2570        dropout_13[0][0]                 
==================================================================================================
Total params: 2,734,822
Trainable params: 2,734,822
Non-trainable params: 0
__________________________________________________________________________________________________
729/729 - 10s - loss: 6.0110 - Anger_loss: 0.4383 - Disgust_loss: 0.6066 - Fear_loss
…
